…
 = torch.optim.Adam(model.parameters(), lr=<span class="hljs-number">0.005</span>)<span class="hljs-comment"># Summary</span>summary(model, input_size=(<span class="hljs-number">60000</span>, <span class="hljs-number">784</span>))</code></pre></div><div class="code-wrapper"><pre><code class="hljs shell">==========================================================================================Layer (type:depth-idx)                   Output Shape              Param #==========================================================================================AE                                       [60000, 81]               --├─Sequential: 1-1                        [60000, 81]               --│    └─Linear: 2-1                       [60000, 81]               63,504├─Sequential: 1-2                        [60000, 784]              --│    └─Linear: 2-2                       [60000, 784]              63,504==========================================================================================Total params: 127,008Trainable params: 127,008Non-trainable params: 0Total mult-adds (G): 7.62==========================================================================================Input size (MB): 188.16Forward/backward pass size (MB): 415.20Params size (MB): 0.51Estimated Total Size (MB): 603.87=========
…
.weight.shape)<span class="hljs-built_in">print</span>(<span class="hljs-string">&quot;decoder weight shape: &quot;</span>, model.decoder[<span class="hljs-number">0</span>].weight.shape)</code></pre></div><div class="code-wrapper"><pre><code class="hljs shell">shape of dataset: torch.Size([101, 192080])==========================================================================================Layer (type:depth-idx)                   Output Shape              Param #==========================================================================================AE                                       [101, 8]                  --├─Sequential: 1-1                        [101, 8]                  --│    └─Linear: 2-1                       [101, 8]                  1,536,640├─Sequential: 1-2                        [101, 192080]             --│    └─Linear: 2-2                       [101, 192080]             1,536,640==========================================================================================Total params: 3,073,280Trainable params: 3,073,280Non-trainable params: 0Total mult-adds (M): 310.40==========================================================================================Input size (MB): 77.60Forward/backward pass size (MB): 155.21Params size (MB): 12.29Estimated Total Size (MB): 245.10===
…
ary(model, input_size=(192080, 101))</span>print(&quot;encoder weight shape: &quot;, model.encoder[0].weight.shape)print(&quot;decoder weight shape: &quot;, model.decoder[0].weight.shape)</code></pre></div><div class="code-wrapper"><pre><code class="hljs shell">shape of dataset: torch.Size([192080, 101])==========================================================================================Layer (type:depth-idx)                   Output Shape              Param #==========================================================================================AE                                       [192080, 8]               --├─Sequential: 1-1                        [192080, 8]               --│    └─Linear: 2-1                       [192080, 8]               808├─Sequential: 1-2                        [192080, 101]             --│    └─Linear: 2-2                       [192080, 101]             808==========================================================================================Total params: 1,616Trainable params: 1,616Non-trainable params: 0Total mult-adds (M): 310.40==========================================================================================Input size (MB): 77.60Forward/backward pass size (MB): 167.49Params size (MB): 0.01Estimated Total Size (MB): 245.10============
…
